net_simple_single.pt (torch_old, 1411 bytes, 6 tensors)

mu.0.weight f4 [6, 3]
00000000: 7fc9 77bd 7740 8abf cd94 e23e 4b08 8dbe
00000010: 9151 b03f 317c 683e 796a e13f aa89 0abf
00000020: e8ea 1b40 3826 bfbf 4f87 d3be a3d6 c4bf
00000030: a09a f1be c40a f33c c71e c4bf 9077 063f
00000040: f050 093d 2078 b6be
-0.060494896 -1.0800923 0.4425415 -0.2754539 1.3774892 0.22703625 1.7610618 -0.5411631
2.4362125 -1.4933538 -0.4131417 -1.5378002 -0.47188282 0.02966822 -1.5321892 0.5252619
0.033524454 -0.35638523

mu.0.bias f4 [6]
00000000: 15eb f33e c2ab 2fbf 04e8 80bf 5ea5 0d40
00000010: 62a5 3a3e e59e 25bf
0.4764029 -0.68621457 -1.0070806 2.2132182 0.18227151 -0.6469558

mu.2.weight f4 [6, 6]
00000000: 6082 99bf 73d2 c23f 601a edbf 07a1 7b3f
00000010: acae 503f c1fc aabe 6408 adbe efe2 3cbe
00000020: 7e93 173f f16d d93f b036 aabf c43c 26bf
00000030: 4fb4 5abf 93e1 2f3f 110a a83e 0807 37bf
00000040: 5a49 19c0 28cd e43e f2ab e8bf 31bb 3c40
00000050: 91d0 6abf a0e0 90be 7f07 bbbf c558 d7be
00000060: 9a26 a5bd 5977 003f 0cd5 f7be f870 3840
00000070: cb4a 7fbe 154e 46bf 14f6 28bf de89 47bf
00000080: 391a 0640 590f bc3f efe2 eb3f 1e9a 16c0
-1.1992912 1.5220474 -1.8523674 0.98292583 0.8151653 -0.3339596 -0.33795464 -0.18445943
0.5920943 1.6986676 -1.3297939 -0.6493647 -0.8543138 0.68703574 0.3282018 -0.71495104
-2.395102 0.44687772 -1.8177474 2.9489253 -0.917245 -0.28296375 -1.4611663 -0.42059913
-0.08064003 0.5018211 -0.4840473 2.881895 -0.24930875 -0.77462894 -0.66000485 -0.77944744
2.0953505 1.4692184 1.842863 -2.3531566

mu.2.bias f4 [6]
00000000: f4f0 0c3c 4a12 0240 a432 d0bd 172e 563f
00000010: de0d 583f 6541 f9bf
0.00860237 2.0323663 -0.10165909 0.8366408 0.8439616 -1.9473082

mu.4.weight f4 [4, 6]
00000000: 1f17 a4bf effc d63f e92a 1fbf de58 e63f
00000010: 1792 f53f feda c63f 0e23 dc3f 60fd eabf
00000020: d927 5b3e dcf6 833e 1449 31c0 ef1e 13bf
00000030: 4fa3 203f 678f 43bf 6f61 1a40 0bd1 3abe
00000040: 71e0 603f f219 663f 25b0 dabe 46ee 58bd
00000050: 0324 b3bd 72dc f6be 3c03 2f3f 1dae a53f
-1.2819556 1.6795939 -0.6217485 1.799587 1.9185208 1.5535581 1.7198198 -1.8358574
0.2140192 0.25774276 -2.7700853 -0.57469076 0.6274919 -0.7639069 2.4121969 -0.18243806
0.8784247 0.8988334 -0.42712513 -0.05296161 -0.08747103 -0.4821506 0.6836431 1.294376

mu.4.bias f4 [4]
00000000: 347c aabf b2cf 17be b08b 683f bcca 3440
-1.3319154 -0.14825323 0.90838146 2.824874
