net_simple_multi.pt (torch_old, 16293 bytes, 6 tensors)

mu.0.weight f4 [60, 30]
-0.1710513 0.13385351 -0.31588754 0.22620444 -0.15772717 0.026919084 -0.025417816 0.077959895
0.044378236 -0.060527407 -0.048324313 0.08206014 0.20804 -0.29428336 -0.012255419 -0.10612189
-0.15251732 -0.179091 -0.1941837 -0.10269828 -0.051113203 0.16455592 0.13826194 0.34959942
-0.2496119 -0.0026302498 -0.033480167 0.12193038 -0.07137382 0.12676936 0.21410437 0.12376542
0.11344017 0.20367123 -0.16322653 0.27479038 0.11798704 0.090250045 -0.36866665 0.055049136
-0.11380393 -0.04316599 -0.25816888 0.040213864 0.022505201 -0.038967416 -0.05547048 0.018361174
-0.091313615 0.15113224 -0.049471833 -0.004556468 0.30646417 0.28531012 -0.17675444 -0.10494821
-0.11989278 0.1958571 0.040471774 0.39782342 0.10233054 -0.0044987476 0.09911464 -0.14755218
-0.0026960578 0.02683843 -0.07158184 0.33547938 0.076125346 -0.07134055 0.1673889 -0.03004244
-0.08968269 -0.013627812 -0.065485746 -0.3079717 -0.07953407 -0.32075414 0.117219836 -0.10047711
0.1152685 0.18244262 -0.019213788 0.13701297 0.05663096 -0.1883195 0.119219944 0.1985449
-0.28884205 0.088030204 0.019092055 0.11502324 -0.034892358 -0.053718932 -0.042049 0.1790768
-0.26234657 0.17519593 -0.10680121 -0.09669712 -0.19670393 -0.187824 0.04109872 0.056212943
-0.0033127442 0.13816111 -0.1258191 0.040789038 0.30267882 0.091121964 -0.09604579 0.03583885
-0.16119793 0.050205354 -0.24230725 0.080639556 0.19321382 -0.16743079 0.31019816 0.24239
0.14656512 0.025717635 0.13348262 0.023562998 0.097107224 -0.119458124 0.15257555 -0.0795834
-0.079509184 0.077302106 0.023558123 0.21491371 -0.09272872 0.05087713 -0.21906598 -0.24351119
0.04332418 0.0018968487 0.25497904 0.0051353383 0.17913057 -0.0641951 0.13630623 0.10020866
-0.1384757 -0.09494318 0.1052927 -0.26713675 0.18542361 0.12093035 0.0616078 -0.012890264
-0.10963375 0.12885103 -0.3785231 -0.09894512 -0.32723844 0.059335917 -0.080793224 0.2749827
0.015405551 -0.013969922 -0.14941359 -0.2376357 -0.123656616 0.050446395 0.20937411 0.120394126
0.004668899 -0.16382545 -0.18327947 0.084829845 0.26406646 -0.058218125 -0.051864658 -0.11839829
0.0852713 -0.16790473 0.27330557 -0.3181597 0.23926292 0.14897515 -0.0042253663 -0.2690379
0.11590534 -0.105999075 -0.12053911 -0.10399555 0.3578632 -0.16946307 -0.01895316 -0.102216974
-0.16707972 0.0082598105 -0.14428999 -0.19537751 -0.050626647 0.36627766 -0.17834261 0.31811586
-0.11904595 0.20330314 0.23364143 -0.2268066 -0.092244394 0.070296586 0.04707738 -0.08536931
0.07941395 -0.005320793 -0.078848295 -0.09665641 -0.10272613 0.19807966 -0.104590125 0.06041868
-0.23738863 -0.0629844 0.14955325 0.030369226 -0.10753435 0.4401674 -0.065202154 0.07361151
-0.004654227 -0.16740257 0.18568109 -0.23813966 -0.10883324 0.19644263 0.20669264 -0.22881424
0.015629297 -0.06718226 -0.15878598 0.27566352 -0.047902633 0.14287284 -0.20652777 -0.12778448
-0.118809186 -0.06804258 -0.116640046 -0.29836375 0.020809436 0.046259526 -0.1932682 -0.28274643
-0.13512008 -0.27775306 -0.15039496 0.19222595 0.030568957 0.22046103 -0.024571095 0.14584985
00000000: 1228 2fbe e510 093e 03bc a1be 23a2 673e
00000010: 3b83 21be 6985 dc3c 0639 d0bc 70a9 9f3d
00000020: f4c5 353d 96eb 77bd b7ef 45bd 260f a83d
00000030: 7008 553e 4fac 96be f4ca 48bc 6f56 d9bd
00000040: 802d 1cbe a263 37be 18d8 46be 7a53 d2bd
00000050: 145c 51bd 5981 283e 8a94 0d3e b2fe b23e
00000060: 439a 7fbe 4560 2cbb 8022 09bd a3b6 f93d
00000070: 702c 92bd d4cf 013e 2d3e 5b3e b978 fd3d
00000080: 5253 e83d 318f 503e db24 27be 53b1 8c3e
00000090: 30a3 f13d 04d5 b83d e0c1 bcbe 347b 613d
000000a0: 0912 e9bd d2ce 30bd b62e 84be 4bb7 243d
000000b0: d45c b83c 4c9c 1fbd 0435 63bd 2c6a 963c
000000c0: a202 bbbd 69c2 1a3e faa2 4abd 6d4e 95bb
000000d0: dfe8 9c3e 2b14 923e 1eff 34be 16ef d6bd
000000e0: 598a f5bd c38e 483e bbc5 253d 83af cb3e
000000f0: ad92 d13d 3b6a 93bb 9efc ca3d eb17 17be
00000100: 58b0 30bb 44dc db3c 8099 92bd f4c3 ab3e
00000110: 9be7 9b3d ff1a 92bd ff67 2b3e 901b f6bc
00000120: 8fab b7bd 3047 5fbc 641d 86bd 77ae 9dbe
00000130: c2e2 a2bd e339 a4be f410 f03d f1c6 cdbd
00000140: e411 ec3d 3dd2 3a3e 3c66 9dbc 214d 0c3e
00000150: def5 673d d4d6 40be 9629 f43d 5b4f 4b3e
00000160: 1be3 93be 2e49 b43d f166 9c3c 4e91 eb3d
00000170: 4aeb 0ebd 6208 5cbd 923b 2cbd e95f 373e
00000180: 4a52 86be 9066 333e 98ba dabd 2409 c6bd
00000190: c16c 49be ef54 40be 2257 283d 8b3f 663d
000001a0: a01a 59bb 1b7a 0d3e b9d6 00be 6812 273d
000001b0: b8f8 9a3e 279e ba3d a8b3 c4bd c2cb 123d
000001c0: 1211 25be 21a4 4d3d 641f 78be 5a26 a53d
000001d0: d8d9 453e fa72 2bbe 4bd2 9e3e 1635 783e
000001e0: 2b15 163e caad d23c abaf 083e 3007 c13c
000001f0: 27e0 c63d 76a6 f4bd c43c 1c3e 9ffc a2bd
00000200: b6d5 a2bd 9150 9e3d f7fc c03c 5712 5c3e
00000210: 8ee8 bdbd 8a64 503d d552 60be ff5a 79be
00000220: b274 313d ae9f f83a 9d8c 823e 5746 a83b
00000230: 016e 373e b878 83bd dc93 0b3e 333a cd3d
00000240: 93cc 0dbe 9271 c2bd b3a3 d73d 26c6 88be
00000250: b0df 3d3e 55aa f73d 7658 7c3d b031 53bc
00000260: a987 e0bd 86f1 033e c8cd c1be bda3 cabd
00000270: cc8b a7be 380a 733d eb76 a5bd 88ca 8c3e
00000280: 9067 7c3c 1ae2 64bc e0ff 18be c656 73be
00000290: ae3f fdbd e1a0 4e3d 2b66 563e 3291 f63d
000002a0: 90fd 983b dcc1 27be 9dad 3bbe 45bb ad3d
000002b0: b833 873e 2176 6ebd 0970 54bd cd7a f2bd
000002c0: b8a2 ae3d 38ef 2bbe b5ee 8b3e d4e5 a2be
000002d0: 5701 753e f18c 183e f174 8abb 56bf 89be
000002e0: c75f ed3d 0b16 d9bd 35dd f6bd 9efb d4bd
000002f0: d839 b73e ba87 2dbe a843 9bbc 2257 d1bd
00000300: f216 2bbe 2854 073c c1c0 13be 0b11 48be
00000310: e35d 4fbd bf88 bb3e 729f 36be 15e0 a23e
00000320: 5dce f3bd b32e 503e b33f 6f3e fd3f 68be
00000330: a1ea bcbd a8f7 8f3d 36d4 403d 1bd6 aebd
00000340: c8a3 a23d 0c5a aebb 377b a1bd ccf3 c5bd
00000350: 1462 d2bd 65d5 4a3e 5933 d6bd 9479 773d
00000360: 0116 73be f7fd 80bd 7d24 193e e2c8 f83c
00000370: f83a dcbd 9f5d e13e b588 85bd a2c1 963d
00000380: 7c82 98bb 946b 2bbe 2f23 3e3e e2da 73be
00000390: f6e3 debd 4228 493e 3ca7 533e 484e 6abe
000003a0: 0309 803c da96 89bd cb98 22be c523 8d3e
000003b0: 8d35 44bd 424d 123e 047c 53be efd9 02be
000003c0: 3b52 f3bd e859 8bbd fae0 eebd 22c3 98be
000003d0: 8d78 aa3c a17a 3d3d 19e8 45be 24c4 90be
000003e0: eb5c 0abe a635 8ebe 2301 1abe e1d6 443e
000003f0: c06b fa3c 89c0 613e 5249 c9bc aa59 153e

mu.0.bias f4 [60]
0.09344037 -0.20032293 -0.17539512 0.19836164 0.033057224 -0.028531944 -0.28206426 -0.21335378
-0.050579503 0.0973911 0.09128125 0.012026477 0.15842918 0.113571845 0.05561821 -0.017855655
-0.09510833 0.43263513 -0.06991301 0.13181402 -0.17234725 0.05984596 -0.2372464 0.0015826765
0.20184734 -0.05675652 -0.22668986 0.051022604 0.23955119 -0.047486432 0.11985646 0.1567888
0.18830156 0.06383753 -0.009742873 -0.16853479 -0.049090896 -0.12263801 0.07279703 0.11283858
-0.12833925 0.06798456 0.24690327 0.1858606 0.14161737 0.1414847 0.023071956 0.23290531
-0.003479519 -0.05728148 -0.03248695 0.053844392 0.2508903 -0.27936208 -0.119874515 -0.27334118
0.38467833 0.26938862 -0.03365615 0.09304757
00000000: aa5d bf3d 7421 4dbe c79a 33be 501f 4b3e
00000010: 0367 073d d3bb e9bc ba6a 90be 6a79 5abe
00000020: 742c 4fbd fc74 c73d aaf1 ba3d b30a 453c
00000030: 423b 223e 5b98 e83d eccf 633d 0646 92bc
00000040: 28c8 c2bd 5a82 dd3e 8d2e 8fbd 41fa 063e
00000050: cc7b 30be 0a21 753d b8f0 72be d071 cf3a
00000060: 12b1 4e3e 8679 68bd 6321 68be 14fd 503d
00000070: e84c 753e 2281 42bd 4e77 f53d 3e8d 203e
00000080: 20d2 403e 40bd 823d 92a0 1fbc 6294 2cbe
00000090: 8913 49bd a329 fbbd 9c16 953d ea17 e73d
000000a0: 5d6b 03be 7d3b 8b3d 36d4 7c3e 3e52 3e3e
000000b0: 2504 113e 5de1 103e 6601 bd3c bb7e 6e3e
000000c0: a408 64bb fc9f 6abd 0911 05bd f08b 5c3d
000000d0: b274 803e 8c08 8fbe c580 f5bd 60f3 8bbe
000000e0: 8ff4 c43e 4eed 893e 08db 09bd b98f be3d

mu.2.weight f4 [30, 60]
-0.068825774 0.10133559 -0.0034850866 -0.16429758 -0.0029390357 0.07196612 -0.13093083 0.040588174
-0.012852534 0.081977025 -0.25353006 0.04044938 0.09809871 -0.043966655 -0.00058127847 0.093348876
-0.07864502 -0.037892003 0.03859943 -0.21927246 -0.06051222 0.025625601 -0.012037488 0.005019058
-0.071938515 0.0910701 0.070186734 0.115624055 -0.14057788 -0.2138703 -0.093548425 -0.19706549
0.014663227 0.30180117 0.17253649 -0.282734 -0.099420376 0.16219746 0.10338215 -0.14265999
0.27661207 0.07616633 -0.13267115 0.25754592 -0.040057115 0.13691226 -0.17681459 -0.06466214
-0.011296357 0.0041739815 -0.033084158 0.102732554 -0.035484515 -0.2554141 0.23831461 -0.15969466
0.28902304 -0.004365756 -0.32922226 0.10304391 -0.052094504 -0.022544092 -0.022323743 0.04824258
0.23423475 0.12821762 0.072054625 -0.14085332 -0.042238407 0.036402006 0.12312693 0.13635796
0.067576796 -0.06002599 -0.015504258 0.26236132 -0.18771008 0.10313701 -0.02246778 -0.11735774
-0.23087394 -0.2991401 -0.25328153 0.34453216 0.33626473 -0.17979313 -0.24114566 -0.08421997
0.012039854 0.18011154 0.006554033 0.25384542 0.060350068 -0.12792835 -0.021225695 0.045773268
-0.078027405 -0.24905896 0.099722326 -0.13686828 0.0352211 -0.019763548 -0.09858838 -0.16441524
0.24145927 -0.26714924 0.11921691 -0.18431908 0.13541123 0.27667484 -0.18825135 -0.048187245
0.012673936 -0.14723228 -0.06899024 0.12293642 0.056231212 0.088796556 -0.10602529 -0.014633063
-0.32743648 0.14482467 0.22311595 -0.05209914 0.38311273 0.097132936 0.20922558 0.096029215
0.007926943 -0.060312707 -0.09002566 -0.049626097 -0.30043462 0.03956617 -0.09592709 0.063405626
0.12789573 0.21349959 0.024910923 0.12519845 -0.00846274 0.09954246 -0.05013924 0.050713886
0.03151413 0.13405128 0.025750108 -0.026718274 -0.004040924 0.10319373 0.13062315 0.16610603
0.15653795 -0.011953009 -0.072998784 -0.13235241 -0.14616252 -0.08262555 -0.10250135 0.14666234
0.2583432 0.16610374 0.06697528 -0.0235437 -0.059962295 -0.18692023 0.06897017 -0.23236723
0.0020885272 0.16738486 -0.12155317 -0.11388092 -0.37575758 -0.16770895 -0.144432 -0.081361294
-0.00026445184 0.115843385 -0.29138088 -0.15658227 -0.08545165 0.004333889 -0.04218177 0.0063159233
0.014336263 0.29795578 0.12524326 0.12699245 0.0108030345 0.008110472 -0.16558112 -0.1733898
-0.29196247 -0.0072046453 -0.04792314 0.0884328 -0.09796468 0.2807082 -0.036607802 -0.18102913
-0.1586939 0.028170496 -0.07159568 0.038066357 0.26349175 0.26650476 0.27489743 -0.020879548
-0.10475029 0.10840456 0.047520198 0.23658065 0.07445113 -0.26331887 -0.11351508 0.054472733
-0.12423735 -0.28679 -0.1812148 -0.064238235 -0.14014506 -0.40263507 0.09149945 -0.023219805
0.057474565 -0.16746365 0.2525979 -0.075934865 -0.22362225 0.033361547 -0.10155428 0.10455667
0.1133635 0.07040219 0.040420763 0.12794551 -0.118328765 -0.1110556 0.046198018 -0.072172955
-0.18573442 -0.09637315 0.01945574 0.1556983 0.092132516 -0.05275223 0.13380858 -0.043438178
0.020126756 0.06833765 0.17450416 0.27645442 0.05323568 -0.08828858 0.06611983 0.038448296
00000000: 87f4 8cbd 0989 cf3d 0d66 64bb a03d 28be
00000010: d69c 40bb f962 933d bb12 06be c93f 263d
00000020: 6f93 52bc 92e3 a73d b1ce 81be 40ae 253d
00000030: fae7 c83d 6116 34bd f060 18ba b22d bf3d
00000040: a410 a1bd a534 1bbd 701a 1e3d f688 60be
00000050: a9db 77bd c8ec d13c e238 45bc e976 a43b
00000060: 8054 93bd f682 ba3d 10be 8f3d 4ecc ec3d
00000070: a6f3 0fbe d100 5bbe 5196 bfbd 89cb 49be
00000080: 083e 703c af85 9a3e 68ad 303e 83c2 90be
00000090: e99c cbbd 1717 263e 05ba d33d 7615 12be
000000a0: 19a0 8d3e 18fd 9b3d f2da 07be 0fdd 833e
000000b0: ee12 24bd ba32 0c3e e20e 35be 966d 84bd
000000c0: 5b14 39bc e5c5 883b 4183 07bd 7265 d23d
000000d0: 3658 11bd a3c5 82be bf08 743e ff86 23be
000000e0: d4fa 933e 9e0e 8fbb d28f a8be af08 d33d
000000f0: 0c61 55bd 63ae b8bc 48e0 b6bc 039a 453d
00000100: 3cdb 6f3e 7b4b 033e 6091 933d da3b 10be
00000110: 2e02 2dbd 451a 153d f929 fc3d 6ca1 0b3e
00000120: b465 8a3d d0dd 75bd 9205 7ebc 3954 863e
00000130: 1237 40be 7f39 d33d 5a0e b8bc 4159 f0bd
00000140: 386a 6cbe e428 99be 1eae 81be 8566 b03e
00000150: e42a ac3e b11b 38be e3ee 76be 857b acbd
00000160: cf42 453c 296f 383e 37c3 d63b 07f8 813e
00000170: a231 773d a6ff 02be 82e1 adbc c07c 3b3d
00000180: d5cc 9fbd 5009 7fbe 383b cc3d 3327 0cbe
00000190: 0044 103d 2ae7 a1bc b4e8 c9bd 785c 28be
000001a0: 1941 773e c9c7 88be ff27 f43d 24be 3cbe
000001b0: 3ea9 0a3e 53a8 8d3e f6c4 40be fd5f 45bd
000001c0: 57a6 4f3c 0fc4 16be c14a 8dbd 17c6 fb3d
000001d0: b352 663d f8da b53d ca23 d9bd 84bf 6fbc
000001e0: c1a5 a7be eb4c 143e 8278 643e e865 55bd
000001f0: 5a27 c43e a2ed c63d 3b3f 563e f7aa c43d
00000200: 02e0 013c 750a 77bd 605f b8bd bc44 4bbd
00000210: 91d2 99be 2310 223d 6c75 c4bd cfda 813d
00000220: 19f7 023e a39f 5a3e fe11 cc3c 0634 003e
00000230: 4ea7 0abc ebdc cb3d ce5e 4dbd 5db9 4f3d
00000240: f614 013d bd44 093e e4f1 d23c 48e0 dabc
00000250: ba69 84bb 3c57 d33d 13c2 053e b317 2a3e
00000260: 7c4b 203e 8ed6 43bc 6380 95bd 6487 07be
00000270: a1ab 15be 9637 a9bd 3aec d1bd a72e 163e
00000280: 8f45 843e 1917 2a3e 562a 893d b8de c0bc
00000290: 069b 75bd 0468 3fbe 3c40 8d3d adf1 6dbe
000002a0: acdf 083b f066 2b3e def0 f8bd 663a e9bd
000002b0: 4c63 c0be e5bb 2bbe fbe5 13be c0a0 a6bd
000002c0: 20a6 8ab9 4c3f ed3d e02f 95be 1a57 20be
000002d0: 4601 afbd 4c03 8e3b cbc6 2cbd cef5 ce3b
000002e0: a5e2 6a3c a98d 983e c53f 003e 4f0a 023e
000002f0: 36ff 303c c9e1 043c 198e 29be 198d 31be
00000300: 1b7c 95be f214 ecbb 0e4b 44bd 411c b53d
00000310: b5a1 c8bd fcb8 8f3e 10f2 15bd b35f 39be
00000320: a780 22be d0c5 e63c c2a0 92bd 78eb 1b3d
00000330: 64e8 863e 5073 883e 5bbf 8c3e 960b abbc
00000340: 5287 d6bd 3603 de3d 8aa4 423d 3342 723e
00000350: d679 983d bbd1 86be 987a e8bd cd1e 5f3d
00000360: 2770 febd 24d6 92be 5f90 39be 568f 83bd
00000370: 3082 0fbe 2f26 cebe 1064 bb3d 7637 bebc
00000380: 736a 6b3d 977b 2bbe 8354 813e bd83 9bbd
00000390: 3bfd 64be 1ea6 083d b1fb cfbd cf21 d63d
000003a0: 1f2b e83d 062f 903d 3e90 253d 2604 033e
000003b0: 5a56 f2bd 1e71 e3bd 223a 3d3d 6acf 93bd
000003c0: 2a31 3ebe 495f c5bd a561 9f3c 606f 1f3e
000003d0: f9af bc3d b912 58bd 1e05 093e 3bec 31bd
000003e0: dee0 a43c 9cf4 8b3d 38b1 323e 6f8b 8d3e
000003f0: a80d 5a3d a5d0 b4bd d569 873d f67b 1d3d

mu.2.bias f4 [30]
-0.055366457 -0.12516733 -0.19560651 -0.06743792 0.20760374 0.16607 -0.10651369 0.014733084
-0.060912646 -0.03884378 -0.1395872 -0.040244777 0.13954057 0.14454935 -0.038348764 -0.092045546
-0.081145674 -0.05165348 -0.04799113 -0.20272823 -0.0514126 -0.04882915 0.05043691 0.03158186
0.10324871 0.072658464 0.11425476 0.006350353 0.016485147 0.04687668
00000000: f0c7 62bd dd2b 00be 134d 48be e41c 8abd
00000010: 1396 543e 410e 2a3e d923 dabd 0863 713c
00000020: 8a7f 79bd a81a 1fbd f2ef 0ebe b5d7 24bd
00000030: b9e3 0e3e bf04 143e 9813 1dbd 6082 bcbd
00000040: b42f a6bd 9992 53bd 5992 44bd fd97 4fbe
00000050: 0596 52bd 1301 48bd ef96 4e3d fb5b 013d
00000060: 0f74 d33d f6cd 943d 66fe e93d 9f16 d03b
00000070: dc0b 873c c301 403d

mu.4.weight f4 [4, 30]
0.07135277 0.00032129418 -0.17095065 -0.28323382 -0.12088822 -0.11218057 -0.015451709 -0.25033146
-0.05069087 0.023609858 -0.12400408 -0.10479611 0.3576881 0.057775736 0.005194256 0.26969555
-0.06330925 0.14498696 0.12402588 0.15812369 -0.46459708 -0.10703696 -0.045654185 0.22502135
-0.2192991 0.024973815 -0.04160516 -0.09127279 -0.062210973 -0.0183017 -0.052896988 0.03404896
0.18131702 0.1463459 -0.17675544 0.0222735 -0.26201233 -0.089531474 0.08963813 -0.114491284
0.08056497 -0.057033423 0.102340356 -0.02148344 0.1908649 0.18916777 0.11680432 0.10861033
-0.17158444 0.20076893 0.037354 -0.029011253 -0.028225858 -0.034009103 -0.3302525 -0.1466551
-0.2822053 0.007906101 0.013094291 0.033738844 -0.258055 0.0682185 -0.18146935 0.058187153
-0.12346888 -0.18446156 -0.10196689 0.0100559 -0.055647887 0.065270364 0.1093411 -0.14591002
-0.10787357 0.006860258 0.17936309 0.097127214 0.1419944 -0.07908179 0.011553185 0.030504413
0.02375151 -0.15796064 -0.016137335 -0.16407761 -0.0029841731 0.31781378 0.14196956 0.12832628
0.011771205 0.27055374 -0.051891457 -0.032308 0.1785292 -0.09600776 -0.28030187 -0.13399833
0.13519059 0.12657337 -0.31331843 0.15398759 -0.070112504 0.11082916 0.15086283 0.20828909
0.013055356 -0.23832043 0.015320225 -0.14355905 -0.010087959 -0.09789274 0.04294393 0.21383393
-0.089559935 -0.24383794 -0.22530417 0.3170448 0.17276663 -0.093294665 0.0576159 0.17760274
00000000: 6721 923d 6073 a839 b00d 2fbe 0604 91be
00000010: 3e94 f7bd edbe e5bd 2a29 7dbc 722b 80be
00000020: 3ba1 4fbd 7669 c13c daf5 fdbd 589f d6bd
00000030: e522 b73e 40a6 6c3d 9434 aa3b 8915 8a3e
00000040: 48a8 81bd 7677 143e 4801 fe3d 2deb 213e
00000050: abdf edbe 3236 dbbd e2ff 3abd ff6b 663e
00000060: f18f 60be e395 cc3c 2c6a 2abd 3bed babd
00000070: efd0 7ebd 72ed 95bc 83aa 58bd ec76 0b3d
00000080: 2bab 393e b3db 153e 61ff 34be ea76 b63c
00000090: 7b26 86be 475c b7bd 3294 b73d 687a eabd
000000a0: 3fff a43d e19b 69bd d297 d13d 0afe afbc
000000b0: 1772 433e 32b5 413e 1a37 ef3d 186f de3d
000000c0: d5b3 2fbe 5f96 4d3e 8200 193d 02a9 edbc
000000d0: ea39 e7bc 214d 0bbd db16 a9be c12c 16be
000000e0: 377d 90be 9788 013c 7089 563c be31 0a3d
000000f0: c91f 84be 24b6 8b3d 1ad3 39be a755 6e3d
00000100: 41dd fcbd 7ee3 3cbe 04d4 d0bd 80c1 243c
00000110: 0aef 63bd 78ac 853d 3aee df3d 7069 15be
00000120: d1ec dcbd 04cc e03b f5aa 373e a2ea c63d
00000130: fb66 113e a2f5 a1bd 9249 3d3c 64e4 f93c
00000140: 8792 c23c 6fc0 21be 7232 84bc f603 28be
00000150: 1e92 43bb 7db8 a23e 7860 113e f767 033e
00000160: 03dc 403c 0586 8a3e 238c 54bd 6555 04bd
00000170: 5cd0 363e b79f c4bd ba83 8fbe dc36 09be
00000180: 676f 0a3e 739c 013e 466b a0be ecae 1d3e
00000190: 2597 8fbd 66fa e23d c97b 1a3e bc49 553e
000001a0: 22e6 553c 450a 74be ae01 7b3c 2501 13be
000001b0: f747 25bc fd7b c8bd f9e5 2f3d 48f7 5a3e
000001c0: 336b b7bd a7b0 79be 23b6 66be b253 a23e
000001d0: bce9 303e 4611 bfbd a6fe 6b3d 7edd 353e

mu.4.bias f4 [4]
0.23756957 0.069334894 -0.16415167 0.06307016
00000000: 7045 733e 74ff 8d3d 6017 28be ee2a 813d
